checkpoint.pth (torch_old, 120778 bytes, 8 tensors)

fc1.weight f4 [128, 37]
000000 c9 8c ca 3e 7e 6d 3c bf cc 2e 39 be 13 05 0a bf
       0.39560536 -0.7360457 -0.18084258 -0.5391399
000010 40 59 06 c0 88 df 57 38 bd 17 12 bd e7 db c6 3d
       -2.0991974 5.1468174e-05 -0.03566717 0.09709912
000020 c2 06 b9 3e 2f 27 c3 3e 4c 15 ae 3d 9f 73 a2 bd
       0.36137968 0.38115832 0.08500156 -0.07932209
000030 88 c0 a1 be d2 cf 33 3e 9f 16 e1 bd 74 39 08 3e
       -0.31592202 0.17559746 -0.10990643 0.13303167
000040 1a d7 4d bc 4a ab a5 3d 06 9a 90 3e 81 a4 8b 3e
       -0.012563491 0.080893114 0.2824251 0.27273944
000050 14 ca 02 3f 9f eb 15 3e 42 fb 06 be 2a 6a 29 be
       0.51089597 0.14640664 -0.13181785 -0.16544405
000060 d1 2d ce 3c 19 81 98 3c fa 77 34 3e c2 59 51 be
       0.025168331 0.018616246 0.17623892 -0.20444396
000070 c3 10 59 3e 9b f6 dc 3e c5 81 a3 3c 28 64 42 3e
       0.211978 0.43156895 0.01995934 0.18983519
000080 55 f7 bb 3c 31 55 7c be ce f4 ad bd c4 4e 05 3e
       0.022945086 -0.24641873 -0.084939584 0.13018328
000090 2c b6 d7 3b 05 99 92 3e 8c 5f 35 bf 70 fb 11 be
       0.006582996 0.2863237 -0.7084892 -0.14256072
0000a0 db 0d 5d 3e 59 0d d1 bf fe ce 6c bc 77 29 76 be
       0.21587317 -1.6332198 -0.014453648 -0.24039255
0000b0 e0 f8 2c be 1f 24 f8 bd c6 f3 1c 3e 88 ec c2 3d
       -0.16891813 -0.121162646 0.15327367 0.09517771
0000c0 3d b7 da bd 19 bc 81 3c c5 7b 8e 3d f2 37 c2 3e
       -0.10679481 0.015836762 0.06957201 0.37933308
0000d0 b6 61 9d be 3a 7d b0 3e 67 ca 85 3e 04 0c 9e bd
       -0.3073861 0.3447054 0.26130983 -0.077171355
0000e0 d5 db 0c 3f ba a2 f0 3d 73 8a a7 3b 32 d1 e2 be
       0.5502294 0.11749788 0.00511294 -0.44300228
0000f0 05 a8 00 be a5 23 34 3d 23 33 44 3d 4d 96 95 bb
       -0.12564094 0.043979306 0.04790033 -0.0045650364
000100 d6 f1 24 3e 8f 48 4c be e4 66 87 be 32 37 46 be
       0.16107878 -0.19949554 -0.26445687 -0.19356993
000110 47 39 cb bd 44 1f 5a 3e 49 32 35 3e 47 97 db bc
       -0.09923034 0.2130099 0.17694964 -0.026805533
000120 a8 4c a4 3d b1 61 cb 3b a8 3c 8b 3e 07 82 6d 3d
       0.080224335 0.006206714 0.27194715 0.057985332
000130 02 f1 1d 3e 75 8c 5c 3d d6 02 13 3e 5e 6f 95 bf
       0.15423968 0.053844888 0.1435655 -1.1674612
000140 9f 5b 9b 3e 49 82 bf 3e d6 b2 03 bf 1d 79 cf bf
       0.3034334 0.37404087 -0.51444757 -1.6208836
000150 17 e1 26 bd d3 61 ef 3d 42 43 1e be 75 a2 82 be
       -0.040742006 0.1168858 -0.15455344 -0.2551457
000160 3c d8 32 3e 80 ad 51 3d df e8 f5 3d 67 a5 83 3d
       0.174653 0.051190853 0.12007307 0.06428032
000170 13 3a 01 be 9e 1d 11 bf df 53 5f bd 13 e3 42 bd
       -0.1261981 -0.5668582 -0.054523345 -0.047579836
000180 8d 58 c7 3d dd 91 58 bd db 4c 3c bd 62 9e 56 bf
       0.097336866 -0.05287348 -0.045971733 -0.83835423
000190 8d 8f e3 3e f5 f5 7d 3e a5 6d f0 be 96 2e 9d bf
       0.44445458 0.24800856 -0.46958652 -1.2279842
0001a0 7d 14 e2 be e6 a6 7f bd 7e 6f 75 3e b0 cf b3 bd
       -0.44156256 -0.062415026 0.23968312 -0.087798476
0001b0 a9 3c b4 be a9 24 db bd 16 80 04 bc d2 6c bc 3e
       -0.3520253 -0.10700352 -0.008087179 0.36801773
0001c0 76 a6 54 bf 55 ab 28 3e 4c b8 7f be 55 83 87 bf
       -0.830665 0.16471608 -0.24972647 -1.0586954
0001d0 1a 23 10 3d 45 81 2d be 38 42 30 be 3b fd e4 bd
       0.035189725 -0.16943844 -0.1721276 -0.111811124
0001e0 40 be b1 3c 27 6c 78 3e ec 47 c0 bd 0a e2 94 bf
       0.021697164 0.24260007 -0.09388718 -1.1631482
0001f0 7f 23 e8 be e2 da ac bd 65 e8 87 bc 99 17 32 bd
       -0.4533958 -0.08440186 -0.016590307 -0.043479536
000200 67 37 23 be da 3b 52 be 03 2f 24 be 40 cd 4b 3e
       -0.15939103 -0.20530644 -0.16033559 0.19902515
000210 04 ac 57 bf 87 f9 99 3e f0 a3 75 bf 4f 5c 3a bf
       -0.8424685 0.30073187 -0.95953274 -0.727971
000220 7b 1d a5 be a0 14 95 bb 24 42 2b bd b5 73 3a 3f
       -0.32249054 -0.004549578 -0.041811123 0.72832805
000230 b9 23 4a be 37 12 19 3e 3e 3e 29 3e 1a fb 6b 3d
       -0.1974019 0.14948355 0.1652765 0.057612516
000240 ac 82 14 be f2 14 13 bf 5d 93 f8 3d d7 3a 21 be
       -0.14502972 -0.57453835 0.12137482 -0.15745102
000250 ea 5c e2 3d af 85 33 bd 24 fa c3 bd 15 20 2e bd
       0.11052878 -0.043828662 -0.09569195 -0.042511065
000260 6b 1d 60 bc d3 7d 07 3f 4a 6f 32 bf f2 88 51 bf
       -0.013678889 0.5292637 -0.69701064 -0.81849587
000270 fa 57 6b bf ef b2 27 c0 dc 00 0e bd dd 38 60 3d
       -0.91931117 -2.6202962 -0.03466879 0.05474173
000280 fb b3 d1 3d 25 c5 e3 3d ba 29 33 be 7a 4b ad 3c
       0.10239407 0.11121587 -0.17496386 0.021154154
000290 c2 40 5e 3d 86 98 99 3d ec 8b c0 3d 5b 4a 1c 3e
       0.054260977 0.07499795 0.09401688 0.1526274
0002a0 40 a6 7c 3b 2e 34 16 3e d3 4e c3 3d f2 4d 8a 3e
       0.003855124 0.14668342 0.09536519 0.27012593
0002b0 21 e3 a1 3e 5d 70 18 3d f3 ef 14 3e 42 4e 3f 3e
       0.31618598 0.037216533 0.14544658 0.18682197
0002c0 fd f3 50 3e 8f 53 1b 3e 55 55 04 3e b7 16 8d 3b
       0.20405574 0.15168594 0.12923177 0.0043056863
0002d0 95 39 2c 3e a5 9d 96 3e 93 be 5c 3e 5e e5 b5 bc
       0.16818841 0.29417148 0.21557073 -0.022204097
0002e0 e1 c2 1e bc ed 5c 04 bd d6 bb b6 be 57 18 22 3e
       -0.009690017 -0.032315183 -0.35690182 0.15829597
0002f0 e1 79 9f 3e fb a3 92 3e 7f 2f a6 bd 9b 0e 05 3d
       0.31147674 0.28640732 -0.08114528 0.032484632
000300 72 e4 29 3d 38 81 87 3c 3d cd e1 bf 9a 08 c7 3e
       0.041477628 0.016541108 -1.7640759 0.3887375
000310 44 ae a2 be 09 0d 05 3e 13 49 a0 be 44 6d 3d be
       -0.3177358 0.12993254 -0.3130575 -0.18498713
000320 74 68 bc bd 6b a2 dd 3d 01 18 97 3d e2 8e 8d bd
       -0.0919961 0.108219944 0.07377625 -0.06912018
000330 7d 90 a1 3e 3a 84 07 be d6 34 e0 3e a3 22 bf 3d
       0.31555548 -0.13234034 0.4379031 0.09332778
000340 ea 6d 4b 3e 0b 0e af 3c 8f 56 55 be dc 4b 9e 3d
       0.19866148 0.021369 -0.208338 0.07729313
000350 28 16 b4 bc fe 09 b6 3e b3 05 b3 3e e0 a9 cb be
       -0.021983221 0.35554498 0.34965286 -0.39778042
000360 47 4e 68 be 17 9b bb 3e bd c9 42 3e 28 d7 93 be
       -0.2268611 0.36641762 0.1902227 -0.2887509
000370 f0 c7 24 3e d8 43 6d 3d be 16 e8 3d 42 8c 0a 3e
       0.16091895 0.05792603 0.11332463 0.13530067
000380 38 fe f0 3d 3c 6e f3 3c 11 24 58 bd b0 2c de 3d
       0.117672384 0.02971565 -0.05276877 0.10848367
000390 03 d1 f4 3c 3a a1 e4 3c 4f c2 16 3d 4b cd 0a bd
       0.02988482 0.02790891 0.0368064 -0.03388719
0003a0 95 41 25 3d 48 ee fa 3d 0f a5 81 3e 88 4e 4e 3e
       0.040345747 0.1225248 0.25321242 0.20147145
0003b0 4e 76 0b 3e 45 02 80 3d 3e 01 09 3d d3 9e 2a bc
       0.13619348 0.06250433 0.03344845 -0.010413843
0003c0 1d d0 23 3c a8 fd 63 3c 0b ce 19 3d 87 a6 ad 3d
       0.009998349 0.013915457 0.037550014 0.08479028
0003d0 89 34 07 3d e7 cf a0 3e 08 69 2e 3e 63 e2 a9 3d
       0.033009086 0.31408617 0.17032254 0.08295133
0003e0 e4 82 d1 bc 3f d9 3d bd 2b 34 29 3e 9a 65 0f bd
       -0.025575109 -0.04634976 0.16523807 -0.035009004
0003f0 9a 70 dd 3e bb 83 6c bf da 5b 78 bf 46 3e 5f bf
       0.4324997 -0.92388505 -0.97015154 -0.87204397

fc1.bias f4 [128]
000000 24 57 e2 bd b2 8e 9e bd a5 67 e7 3d cb e1 21 3d
       -0.11051777 -0.07742061 0.112990655 0.039521974
000010 54 58 f0 3d d7 c1 fc bd 8d a0 fd 3d 70 ad 17 3e
       0.11735597 -0.123416595 0.12384138 0.14812255
000020 67 6f 56 be 4d d3 63 ba b5 e5 a5 be c0 2b 36 be
       -0.20940934 -0.0008690849 -0.32401815 -0.17790127
000030 52 e1 16 bd 58 07 98 bd 73 78 ec 3b 29 e8 dc bc
       -0.036835976 -0.07423276 0.007216507 -0.026966171
000040 c2 f3 0c 3e f1 3b 58 3e 9d 33 a5 3d 7e d0 ba bd
       0.13764861 0.21116616 0.08066485 -0.09121798
000050 2a 3a 87 be b8 ea 81 bd a5 68 ed 3d 30 76 b8 bd
       -0.26411563 -0.06343597 0.11592225 -0.090069175
000060 ca ee 0a 3d 10 fa 99 3d d2 ff db 3d e5 d6 9d be
       0.033919133 0.07518399 0.10742153 -0.30828014
000070 57 9e 2a be 8b 8b 9d be 86 b0 09 3e 29 8e 0b bc
       -0.16661964 -0.30770525 0.13446245 -0.00851778
000080 da a1 7a bd 0d 5d ca bc e9 05 94 3d ca 20 d0 be
       -0.06118951 -0.024702573 0.0722769 -0.40650016
000090 e3 9c 58 bd a7 6f 20 3d 7f ed 00 bc 7b 98 8f be
       -0.052883994 0.03916898 -0.0078691235 -0.2804602
0000a0 fd 31 a8 3d 8d 9e 1f 3e 54 eb a9 3d 26 66 24 be
       0.082126595 0.15587826 0.082968384 -0.16054592
0000b0 7a 97 94 3d d7 00 35 bb 2a 37 1a bd 81 b1 6b 3d
       0.07255454 -0.0027618909 -0.037650265 0.057542328
0000c0 cd a6 e0 be b7 f8 91 3d f7 2e ae 3d ee 63 8e 3c
       -0.4387726 0.07127517 0.085050516 0.017381635
0000d0 e0 e6 67 be e4 3a b0 3d c5 be 23 be ce ec b2 bd
       -0.22646666 0.086049825 -0.15990742 -0.08736573
0000e0 48 c9 00 be c7 d2 03 be 8f 0e 01 3e c6 6b 1a be
       -0.12576783 -0.12873374 0.1260321 -0.15080175
0000f0 e7 6b 75 be ef 16 92 3d d4 4d c1 bc f2 d5 c2 be
       -0.23966943 0.071332805 -0.023596682 -0.38053852
000100 6f b6 93 bc 35 f5 ba bc a0 ee ee 3d b4 59 b3 bd
       -0.018031327 -0.022822002 0.11666608 -0.08757344
000110 b9 36 7d bb 50 11 99 3c 15 09 5b 3c 81 d7 1e bc
       -0.0038637354 0.018685013 0.013368865 -0.009694935
000120 c1 cd 3f 3e c6 70 22 be 75 9d b1 be e3 a9 e1 bd
       0.18730833 -0.15863332 -0.34690443 -0.110187314
000130 28 da 30 3d b1 aa 3a be 48 39 0e be 4d 0e f7 bd
       0.0431768 -0.18229176 -0.13889039 -0.120632745
000140 8f f9 5b be 60 cc 6e bc 68 9b a1 3d 06 79 1e be
       -0.21481918 -0.014575094 0.078909695 -0.15475854
000150 ec f7 a2 bd 29 c1 99 3d ce df 96 3d 4a 1b dc bd
       -0.079574436 0.075075455 0.07366906 -0.107473925
000160 52 21 a5 3d 22 5b 11 3e 0b cf b4 3c f7 9e 7a bd
       0.08062996 0.1419492 0.022071382 -0.061186757
000170 3c 79 1c be d2 c6 ae bd 70 d3 70 be f4 13 14 3e
       -0.15280622 -0.08534016 -0.23518157 0.14460737
000180 de 28 33 be 4c d4 d5 bd b2 2f f8 bc 88 46 8f 3d
       -0.17496058 -0.10440883 -0.03029618 0.06995875
000190 6d 60 83 be 34 69 96 be e6 73 21 be 4b e1 36 3e
       -0.25659505 -0.2937714 -0.15766868 0.1785938
0001a0 80 54 21 be 9d 8b 4d be 5f 29 3f bd f3 25 1d 3e
       -0.1575489 -0.2007279 -0.046670314 0.15346508
0001b0 ac 47 31 be 85 4a 01 be 1b 0c 8f 3e 93 d7 bd bd
       -0.17312497 -0.12626083 0.27938923 -0.09269633
0001c0 cb b0 8d be 2e d0 dd bd 69 50 4d bc d8 49 ec 3d
       -0.27673945 -0.10830723 -0.012531378 0.11537522
0001d0 ea b7 0e bd dc f8 dd 3d 67 6f c3 3d e0 5f 8d bd
       -0.034843363 0.10838482 0.09542733 -0.06903052
0001e0 0d a9 93 be 82 53 87 3e 8b a5 d1 bc 57 86 95 be
       -0.28839913 0.264309 -0.025591632 -0.29204056
0001f0 40 21 0c be 98 79 98 3d f6 a3 b3 3c 14 b5 c6 bd
       -0.13684559 0.07445067 0.021928769 -0.09702507

fc2.weight f4 [128, 128]
000000 9d b2 b4 bd 67 ca 30 bf fb c2 00 bf ba 08 94 bc
       -0.0882313 -0.6905884 -0.50297517 -0.018070567
000010 37 ce 1e bc d3 04 a1 be 4a 4b b9 be 3f 5d c7 be
       -0.00969272 -0.31448993 -0.36190253 -0.3893833
000020 85 65 d1 bd a7 75 ad 3c 71 76 3b bf ec b5 9c bd
       -0.102244414 0.021174265 -0.732276 -0.07651886
000030 e5 44 d3 bd 63 e8 5c bf 1f 73 ea bc 25 0a 90 3d
       -0.10315875 -0.86292094 -0.028619347 0.07033185
000040 13 b0 bf be 7a ce 14 bf 35 07 0e bf 96 b5 37 bf
       -0.3743902 -0.5812756 -0.5547975 -0.71761453
000050 cb 51 16 be b6 e6 bf bd ba 95 83 be 8c 8d f7 be
       -0.14679639 -0.093701765 -0.2570017 -0.4835018
000060 29 b1 59 3e 31 0f 50 be 87 a9 1f bf 94 7e b3 be
       0.21258987 -0.20318295 -0.62368053 -0.3505751
000070 db fa 01 3e 75 3f be be d1 e0 4e be cc 6f 4a be
       0.1269335 -0.3715779 -0.20202948 -0.1976921
000080 00 72 03 3e ee 95 1f bf ec 54 76 bc b9 6f fc be
       0.12836456 -0.6233815 -0.015034895 -0.49303988
000090 28 5d af bd c2 5c 09 be aa 4b ce bd b0 35 16 be
       -0.0856269 -0.1341429 -0.100730255 -0.14668918
0000a0 e4 45 40 bf 2f 74 8b 3d e4 22 b7 bd e4 fa 56 be
       -0.75106645 0.0680927 -0.08942202 -0.20994145
0000b0 35 03 a1 bd 49 5e 98 be eb 74 41 be c0 2b 39 be
       -0.0786194 -0.29759434 -0.18892257 -0.18083096
0000c0 64 1a e3 be 4a 4f 1a 3e de 83 ac be 0f 4e 03 bf
       -0.44356072 0.15069309 -0.33694357 -0.5129098
0000d0 44 03 ad be 98 3d 3a bd 0d 31 44 be 25 5f ff 3d
       -0.33791554 -0.045468897 -0.19159336 0.12469319
0000e0 81 0b de be 3e 28 13 bc a0 7b f0 be 83 fc 99 be
       -0.43368152 -0.008981762 -0.46969318 -0.30075464
0000f0 39 2b fa be ff 31 70 be d1 77 51 be c0 01 ce be
       -0.488611 -0.23456572 -0.20455863 -0.4023571
000100 ce c1 dc bd bb 3f 09 bf fa 18 a5 be ea 99 49 bd
       -0.10779153 -0.5361287 -0.32245618 -0.04921905
000110 ea 33 6b be ba a7 aa 3d d1 8c 37 bd 08 56 b3 3d
       -0.22969022 0.083327726 -0.044812027 0.087566435
000120 0c 1e dd bc b9 cb 32 bd 4c 62 14 bf 15 92 d7 be
       -0.026991867 -0.043651316 -0.5796249 -0.4210364
000130 5d ba 6c be bc 74 5a 39 05 77 ac be 8b 3c c6 3d
       -0.23117967 0.00020833587 -0.33684555 0.096795164
000140 e8 35 0c be 00 a5 42 bc 92 95 76 be f1 6f 0d bf
       -0.13692439 -0.011880159 -0.24080494 -0.55248934
000150 9d 82 81 be fd 72 90 be e8 f5 f6 be 58 57 73 3e
       -0.25294963 -0.2821273 -0.48234487 0.23763788
000160 72 d0 d0 be 59 12 81 bc cd 66 c9 3d 85 d9 c6 bd
       -0.4078403 -0.01575582 0.09834061 -0.09709457
000170 c6 a5 95 be 6c fd 42 be 15 7b f4 bd 0a 27 07 be
       -0.29228038 -0.19041985 -0.119375385 -0.13198486
000180 36 63 03 bf 50 c8 99 be 52 0a 8e be 15 e2 15 bd
       -0.5132326 -0.3003564 -0.2774225 -0.03659256
000190 b4 a4 d7 be 8e 66 4d be 95 06 eb be 8f bd ca be
       -0.42117846 -0.20058653 -0.4590346 -0.39597747
0001a0 31 b3 0a bf d8 a1 1b bc aa 9c ad 3d 4e 4b e7 bd
       -0.54179674 -0.009499036 0.08477147 -0.1129366
0001b0 27 87 d9 bc ea 2a 8f be aa c3 de be 6a d6 b9 bd
       -0.026553703 -0.27962428 -0.43508655 -0.09074099
0001c0 51 fa 5d be dc 38 0f be a5 65 18 be 6f 06 8c be
       -0.2167752 -0.13986534 -0.14882524 -0.27348658
0001d0 5b af 83 be b5 a3 1c 3e d2 06 5d bf d8 27 c6 be
       -0.25719723 0.15296824 -0.8633853 -0.38702273
0001e0 1c 86 04 3e 4c 25 19 bf 4d cd b9 bd 6c 12 af be
       0.12941784 -0.59822536 -0.09072361 -0.34193742
0001f0 20 e7 7b bd 3d 10 9e be 24 5b cf bd 79 07 5b be
       -0.061499715 -0.30871764 -0.101248056 -0.2138957
000200 08 f5 39 3c f6 e3 35 be c8 56 72 bf 1c db d3 3e
       0.011349924 -0.17762741 -0.9466367 0.41378105
000210 ff 81 3c be 40 86 d2 bc c3 3b 89 3e 83 cb 25 be
       -0.18408965 -0.025698781 0.26803407 -0.16190915
000220 a5 bf 41 be 90 e8 5a bc 5c ca cb bd 5a 24 42 3d
       -0.18920763 -0.013361111 -0.09950706 0.04739795
000230 27 4e be be f2 d9 d5 3d a7 51 63 bf b1 20 26 bf
       -0.37169 0.104419604 -0.88796467 -0.64893633
000240 8f 1d ae 3e 86 bd 26 be 34 85 80 be 17 65 55 bd
       0.34006926 -0.16283235 -0.25101626 -0.05209836
000250 64 9c 0b 3d 8e 50 41 bf f2 79 30 be 5d 07 8e 3c
       0.034084693 -0.7551354 -0.17234018 0.017337495
000260 eb 53 68 be 9f 83 06 be 44 d7 02 bf c4 ce bc be
       -0.22688262 -0.13136147 -0.5110972 -0.368765
000270 c6 f3 9e bc e8 53 1b 3e 7a 74 fd bd 0e 99 29 bf
       -0.01940335 0.15168726 -0.12375732 -0.6624917
000280 48 69 9d be 06 f8 23 bf b5 09 97 be 42 3f 2e 3e
       -0.30744386 -0.6405033 -0.29499593 0.17016318
000290 a8 68 c9 3c 00 06 9b be f1 fe 21 be f5 a9 59 be
       0.024586037 -0.30278015 -0.15819909 -0.2125624
0002a0 03 e9 10 be 5a 85 fe bd 5c 05 05 bf 04 53 bd bd
       -0.14151387 -0.124277785 -0.519613 -0.092443496
0002b0 e7 49 72 3e db aa 58 3c 67 c6 26 be 10 31 52 3d
       0.23661004 0.013224329 -0.16286622 0.05131632
0002c0 38 aa a8 be 59 28 2c 3c 33 5d b1 bd 46 7e 4f bd
       -0.32942367 0.0105076665 -0.086603545 -0.050657533
0002d0 41 0b 85 3e b3 48 a6 bd a4 d9 58 be cd b6 9b 3d
       0.2598515 -0.08119335 -0.21176773 0.07603226
0002e0 b5 29 9d bd e2 ef e7 3d 10 e8 f4 be 1f b5 b8 bd
       -0.076739706 0.11325051 -0.478333 -0.09018921
0002f0 1e 39 3f 3e ea e1 9c 3e c4 0d 5a bd 95 26 f1 be
       0.18674132 0.3064111 -0.053235784 -0.47099748
000300 e6 f5 39 be 27 fa ed be 92 42 cb 3d 05 e9 20 bf
       -0.18160209 -0.46479914 0.09924807 -0.6285556
000310 74 a9 18 bd bc 1f a9 bc bc 31 72 be 81 a6 d4 bd
       -0.037270978 -0.020645015 -0.23651785 -0.103833206
000320 9c 8a c9 be 56 0c 15 bf 4a 9d 30 be 9b 0c 9a be
       -0.39363563 -0.5822195 -0.17247501 -0.30087742
000330 42 f2 64 3c ac 0e 17 bf 6a f0 0d 3d b8 c8 14 bf
       0.013973774 -0.5900676 0.034653105 -0.5811877
000340 6a 63 9c be b7 c4 e3 bd bc a0 e2 be 3a cd 1f be
       -0.30544597 -0.11121505 -0.44263256 -0.15605631
000350 ed db bd be 17 42 2e 3e 44 c5 9b 3d 9c 13 89 bb
       -0.37081853 0.17017399 0.07605985 -0.004183246
000360 9d 17 12 bf 5a f3 57 be 22 01 e1 be de ff 32 be
       -0.5706728 -0.21088925 -0.43946177 -0.17480418
000370 a4 ea 95 3d 6b 91 00 be 0c a9 87 bf 9a fc f3 bd
       0.07320145 -0.12555473 -1.0598464 -0.11913414
000380 a3 ec 40 be f1 df 7b 3e 03 81 43 be 95 c8 80 bf
       -0.1884027 0.24597146 -0.19092183 -1.0061213
000390 2c 2a 97 3e de 92 8f 3e 1b 10 e5 bd a3 d6 1b 3e
       0.29524362 0.28041738 -0.111847125 0.15218596
0003a0 59 b0 bd 3d 78 34 5b be 03 92 07 bf e6 6b 8a bd
       0.09262151 -0.21406734 -0.5295717 -0.06758861
0003b0 f3 f6 c7 bc 6d f5 c3 be f9 b9 8b bb 26 d2 07 bf
       -0.024409747 -0.38273183 -0.004264113 -0.53055036
0003c0 b2 36 d4 3c 66 1b 82 3e 4d b8 c4 be af 0a 04 bf
       0.025904987 0.25411528 -0.3842186 -0.515788
0003d0 19 b5 a1 be 8d cf b3 3c b0 fb 26 be 4c 46 d5 be
       -0.3158348 0.021949554 -0.16306949 -0.41655195
0003e0 d3 aa c8 3d 9e 77 2a 3e 30 ad 9c be 49 8a 0d bf
       0.09798207 0.16647193 -0.30600882 -0.5528913
0003f0 97 ec a2 3d 69 f8 05 be d6 14 90 be 83 21 ee bc
       0.07955282 -0.13083042 -0.28140897 -0.029068714

fc2.bias f4 [128]
000000 5b 7d 95 3c f5 3b 44 be 8b 1d ae bc 8a be cd bc
       0.01824825 -0.19163497 -0.021254322 -0.02511527
000010 1b 24 8e bd 3f 08 8b 3e 96 a6 24 bd cd 63 c9 bd
       -0.0694048 0.2715473 -0.04019793 -0.098334886
000020 b4 9e 49 be 79 af 14 be 1e ae 1b be da 70 b3 bc
       -0.19689447 -0.14520063 -0.15203139 -0.021904398
000030 73 87 61 3d 0b dc d2 bd 8d 33 40 b9 9e 9e 87 bd
       0.055060815 -0.10295876 -0.00018329751 -0.06622051
000040 e0 7c 00 be fc 3e 25 be b0 f2 80 be 9d 47 78 be
       -0.12547636 -0.16137308 -0.25185156 -0.24246068
000050 c4 39 04 be cf 80 4d be d1 1e 9e bd d2 e5 25 be
       -0.12912661 -0.20068668 -0.077207215 -0.1620095
000060 89 70 43 bd 6f 59 a1 3d b9 54 4b be c5 73 b4 bc
       -0.047714744 0.07878386 -0.19856538 -0.02202786
000070 7b f1 75 be a9 8f 47 be 86 a3 83 bd d2 19 d7 3e
       -0.24017899 -0.19488396 -0.06427674 0.42011887
000080 93 04 53 be 29 55 17 bc 9a 14 e6 bc 64 8d 32 be
       -0.20607214 -0.009236612 -0.028085995 -0.17436749
000090 2e 99 9f 3e 01 6d 8b be 80 a3 34 be e4 ee a4 bd
       0.31171554 -0.272316 -0.17640495 -0.08053377
0000a0 99 51 07 bd 80 ac 86 be cc ea ae bd c7 08 2d bd
       -0.033036802 -0.26303482 -0.08540878 -0.0422447
0000b0 19 cb c9 3d c3 28 57 bd 94 34 10 be fa 66 bf bd
       0.09853191 -0.052529108 -0.14082557 -0.09345813
0000c0 d6 29 2b 3e 24 b1 a7 be ff c5 2f 3e 50 a3 70 be
       0.16715178 -0.32752335 0.17165373 -0.23499799
0000d0 67 bf 37 be db 6e fe bd ac a3 62 bd 4a ed 9c bd
       -0.17944108 -0.12423488 -0.05533187 -0.07662447
0000e0 88 d4 1b be e3 50 f2 3d ba 23 b0 bd 2a 1b 92 be
       -0.15217793 0.11831834 -0.08600564 -0.2853635
0000f0 92 9a c4 3c d3 44 c8 be 56 77 47 be 0a fd 6d be
       0.023999486 -0.3911501 -0.19479117 -0.23241058
000100 0e 6b a3 bd ca 28 36 be 05 d4 be bd 74 18 e9 3e
       -0.079794034 -0.17788997 -0.09317783 0.4552647
000110 12 a9 9f 3c fb fe 0c 3d 52 fb 3b bd 41 e5 a1 bd
       0.019489799 0.034422856 -0.045893975 -0.07905055
000120 01 b3 c9 bd 6b 56 96 3d e9 15 9d 3d 36 fa ef 3b
       -0.098485954 0.07340702 0.07670195 0.0073235286
000130 78 55 70 3e 82 82 f5 bc d0 be a6 bd e4 5a 7a 3e
       0.23470104 -0.029969458 -0.08141863 0.24448735
000140 0b de a6 bc f1 d1 7c be 94 ae 14 3e 59 e8 a5 bc
       -0.02036955 -0.24689461 0.14519721 -0.020252394
000150 e3 39 a9 be d6 da 6a be f2 b1 19 3c 6c 4e e2 bc
       -0.33051977 -0.22935042 0.009380804 -0.027625285
000160 00 43 47 bd 6c 96 d0 bd a5 f7 80 bd 10 68 6f be
       -0.04864788 -0.10184941 -0.062972344 -0.2337954
000170 db 99 bc be a9 04 93 bc 4e ea 1e be 43 fa 83 bc
       -0.36836132 -0.017946558 -0.15519068 -0.016110545
000180 ac d2 2b be 35 a8 75 bd 21 f5 6d 3d f4 22 6b be
       -0.16779584 -0.059974868 0.0580951 -0.22962552
000190 38 26 75 bd ff fd b5 3d 72 00 04 bd 7a e8 3f be
       -0.0598509 0.088863365 -0.032226987 -0.18741027
0001a0 d7 5d 55 be a1 c3 59 3d e0 31 4c be 60 5a 91 3e
       -0.20836578 0.053165082 -0.19940901 0.28389263
0001b0 6e 56 29 be 4e c2 61 be 25 a8 28 be a1 3f 40 bd
       -0.16536877 -0.22046778 -0.16470392 -0.04693568
0001c0 7a a0 36 be ff ab e9 3d c5 56 03 3e a3 92 dc bd
       -0.17834654 0.11409759 0.12826069 -0.10770156
0001d0 f4 fb 59 be 2c f4 dd bc 91 60 f3 bd ce 94 14 be
       -0.21287519 -0.02709397 -0.11883653 -0.1450989
0001e0 a7 71 17 3d 11 61 2c be 27 38 8c 3c b4 1e 13 be
       0.03697362 -0.16833903 0.01711662 -0.14367181
0001f0 d0 31 aa be d0 c9 31 be e7 24 46 bd 65 c5 a2 bc
       -0.3324113 -0.17362142 -0.048375037 -0.019869516

fc3.weight f4 [64, 128]
000000 40 f9 4a bf 30 b2 1b 3c 41 9d 5f 3e c9 e4 3e bd
       -0.79286575 0.009502932 0.21837331 -0.046604905
000010 c9 bb 27 be 6a a9 3d 3e 97 0b c8 3e 95 64 ae 3b
       -0.16380228 0.18521658 0.39071342 0.005322049
000020 9a 86 21 bd 9d b0 87 3e 3d f7 c6 3d 02 f8 9d 3e
       -0.039435007 0.26501933 0.09715126 0.30853277
000030 f9 62 e8 3e eb f9 f0 bc 21 91 25 bd e3 14 06 3e
       0.4538801 -0.029416045 -0.04042161 0.13093905
000040 fe 67 bb 3c b0 b8 1f bf e0 53 51 3e e2 50 7d be
       0.022876736 -0.62391186 0.20442152 -0.24737886
000050 59 dc 89 be 6b 5c 7a be e8 36 23 3e 44 5b 7f 3e
       -0.26925924 -0.24449317 0.15938914 0.24937159
000060 e4 ad 43 3d bf c7 6b bd e1 2c e7 3c cb bc 14 bf
       0.047773257 -0.05756354 0.028219642 -0.58100575
000070 ef 20 35 bf 70 97 05 3f de bb bc 3d e6 82 f9 3c
       -0.7075338 0.521842 0.0921552 0.030457925
000080 60 f1 37 bf 0a 47 aa 3c 2f 98 1e 3c 65 06 d1 be
       -0.71852684 0.020785827 0.009679838 -0.4082519
000090 7d fd b5 3e 6c 18 8f 3d d6 f8 d7 3d cd 4e c3 bd
       0.3554496 0.0698708 0.105455086 -0.095365144
0000a0 23 b1 33 3e 2b 5c e8 bd be e0 92 3e f9 95 c6 3c
       0.17548041 -0.11345705 0.2868709 0.024241434
0000b0 af 4d ea be ea 9b ae bd c2 dd 63 3e 98 60 0b bd
       -0.45762393 -0.08525832 0.22252563 -0.034027666
0000c0 db 30 ac 3c 8d a7 85 3e 36 01 92 3e f6 2f 1e be
       0.02101939 0.26104394 0.2851655 -0.15447983
0000d0 14 36 5c be 24 b8 75 3d ff 6a 04 3d 01 98 79 3e
       -0.21505004 0.059990063 0.032328602 0.24374391
0000e0 fd 8b 91 3e d3 96 cc 3d 65 51 68 be 87 07 f6 3d
       0.28427115 0.09989705 -0.226873 0.120131545
0000f0 c8 1b dc 3d 7a 5f 56 be 94 a7 57 3e 02 6a 0d bf
       0.10747486 -0.20934859 0.2106002 -0.5523988
000100 56 ae 8f 3e 13 96 02 3e 54 ac ef be 9f c5 93 be
       0.28062695 0.12752561 -0.46811163 -0.2886171
000110 89 57 ff 3e 19 b4 8e bd 0b a4 a3 bd d6 2b a4 3e
       0.49871472 -0.06967945 -0.07990273 0.32064694
000120 28 78 cf bc e2 ce 72 3e c5 2a f2 be b6 2f cf 3e
       -0.02532585 0.23711732 -0.47298256 0.40466088
000130 f8 5e 64 3c fd dd 81 be 6d 88 08 bf cd 1d a6 be
       0.013938658 -0.25364676 -0.5333317 -0.3244461
000140 20 fc 80 bd 23 59 d1 be e2 54 b8 3e 32 16 cf bd
       -0.06298089 -0.40888318 0.3600226 -0.10111655
000150 b4 35 a2 bc b3 91 a9 3c cd 64 0c 3f 7b f7 d0 3d
       -0.019800998 0.020699358 0.5484131 0.10203453
000160 f5 cf 0f bd 4f a3 b7 3e 3d 8e fc 3c cd f3 40 bb
       -0.035110433 0.35866782 0.030829543 -0.0029442192
000170 71 8a 1b be b3 6a 0e be 3d 28 45 3e 05 2e 9f 3c
       -0.1518953 -0.1390789 0.19253631 0.019431124
000180 16 96 70 3e b6 0b f2 be e3 55 2b bf be 4f 31 be
       0.23494753 -0.4727456 -0.6692793 -0.17315575
000190 3d 4f 86 3e 3d 61 0e 3f 16 5c 6f be 42 a5 a1 be
       0.2623233 0.55617124 -0.23374972 -0.31571394
0001a0 c1 10 bc be b3 f4 d4 3d cd f3 3c bd b1 fb 47 3e
       -0.36731532 0.10398235 -0.046130944 0.19529606
0001b0 52 f7 e2 be 39 93 5d bd de b8 ca 3e da 60 39 3d
       -0.44329315 -0.05409548 0.39594167 0.04525838
0001c0 24 64 5a 3e 83 4f 33 bd f3 87 d2 3c 91 87 d6 be
       0.21327263 -0.043777 0.025699591 -0.41900304
0001d0 8f 1d b5 3d 38 a6 95 3e 84 b4 cb 3d b9 20 92 be
       0.088435285 0.29228377 0.0994654 -0.2854059
0001e0 72 56 bd be 40 7a d6 3e 0c bc bb be 37 c4 44 bf
       -0.36980015 0.41890144 -0.36666906 -0.768619
0001f0 92 42 7c 3e b8 25 00 bf 1f eb 2c be e5 90 88 3c
       0.2463477 -0.50057554 -0.16886567 0.016670654
000200 5f 71 8c bd 0e b8 43 bf 97 0e c4 be 43 4a c6 be
       -0.06857561 -0.7645272 -0.3829238 -0.38728532
000210 05 cb b3 bd 32 65 82 bf 61 fb 7c be df 60 ce bd
       -0.08778957 -1.0187132 -0.24705268 -0.100770704
000220 91 fd 85 be 47 a2 fe bd 2e 33 b0 3e a1 7f 10 bf
       -0.26170018 -0.12433296 0.34414047 -0.56444746
000230 f1 3c db be a6 33 f2 bd b0 19 8d bf 95 7f a9 be
       -0.42819932 -0.118262574 -1.1023464 -0.3310515
000240 07 f9 93 3c 40 01 76 3d c8 de a4 3d 2a 44 50 3e
       0.018063081 0.060059786 0.08050305 0.20338503
000250 07 80 55 be 35 90 69 be a2 69 01 3e 18 71 99 be
       -0.2084962 -0.22808917 0.12637952 -0.29969096
000260 ce f8 80 3e bd 2d e7 3d 97 99 c9 3e a9 06 25 bf
       0.25189823 0.11288021 0.39374992 -0.6446329
000270 f1 2f 64 3e 81 c8 29 bd 25 35 62 bf 8b d6 e4 bd
       0.22283913 -0.04145098 -0.8836234 -0.11173733
000280 5b 37 6e be c0 c4 e3 bd 7a cd cd be ef 05 62 be
       -0.23263304 -0.111215115 -0.4019583 -0.22072576
000290 a5 9e 29 be 48 ea c5 be 2b 1b 66 be 78 a1 08 bf
       -0.16564424 -0.38655305 -0.22471301 -0.5337138
0002a0 2b 9c 5a bf 85 f2 62 3e 9e 28 b9 be e7 61 5b 3e
       -0.85394543 0.22162826 -0.361638 0.21424066
0002b0 c7 39 30 3d 5a 7a dc bd 3d 08 28 bf 7a cc 01 be
       0.04302385 -0.10765524 -0.6563757 -0.12675658
0002c0 10 74 30 be 1e 0b 54 be f3 0d 37 3d 49 d3 17 be
       -0.17231774 -0.20707366 0.044691037 -0.14826693
0002d0 5b b0 f6 be 2e 01 8e be 07 09 1d bf 8b 10 8e 3e
       -0.48181424 -0.27735275 -0.613419 0.27746996
0002e0 d6 d5 2c bf c1 94 07 3f 1f 39 56 be f9 13 f3 be
       -0.6751379 0.52961355 -0.20920227 -0.47476175
0002f0 c2 70 95 bd 28 8a e5 be 89 d4 f6 be 10 a9 e8 3d
       -0.072968975 -0.44831967 -0.48209026 0.11360371
000300 e0 bd 71 bf 71 08 1a 3f bf 7c 00 bf f6 72 4c bf
       -0.9443035 0.6016913 -0.5019035 -0.79862916
000310 5b ea 2b 3f 56 9f d4 3e 4d 79 9e bd e4 8d 08 be
       0.67154473 0.41527814 -0.0773798 -0.13335377
000320 46 10 6b be f6 32 b9 be 70 d8 bb be 1d 07 6b bf
       -0.22955427 -0.36171693 -0.36688566 -0.9180773
000330 5d 3c 8a be 31 ac 4c bf 99 63 b9 3e 6f 32 eb 3b
       -0.2699918 -0.79950243 0.362088 0.007177643
000340 73 36 89 be a0 cc 91 bd fb af f0 be 9f 2d 36 bf
       -0.26799354 -0.07119107 -0.47009262 -0.7116336
000350 71 71 c6 be d8 86 85 3d 95 8b 38 3d d3 9a 45 bf
       -0.38758424 0.0651986 0.04505499 -0.7718937
000360 58 cc 87 bb d1 31 01 3e 3b 93 1a bf 3a f0 ee 3d
       -0.0041442327 0.1261666 -0.60380906 0.11666913
000370 bc 3f 44 bd c0 12 c0 3e 87 7b 4d be fc c8 9d bd
       -0.047912344 0.37514305 -0.20066653 -0.0770435
000380 2d ed 9a be a2 50 38 bf 94 5c d5 bc 6d 3d bd 3e
       -0.30259076 -0.71998036 -0.026045121 0.36960927
000390 bf 77 a6 be 31 84 e5 be 45 b2 36 3d 98 29 44 bd
       -0.32513234 -0.44827417 0.044603605 -0.04789123
0003a0 05 a2 62 bf 70 5b f0 bd 9c cb 3b be 35 c9 9e be
       -0.8852847 -0.1173619 -0.1833939 -0.31012884
0003b0 bc 5a 87 3e e9 20 45 bd e7 3f 17 bf 57 3b 52 be
       0.26436412 -0.04812709 -0.5908188 -0.20530449
0003c0 4e a5 a4 be b1 17 66 3d 27 34 55 bc b3 0d 19 bf
       -0.32157367 0.056174938 -0.013012922 -0.5978653
0003d0 a9 73 ef be e2 89 ba 3e ca 68 ac be 78 0f 38 be
       -0.4676793 0.3643332 -0.33673698 -0.17974651
0003e0 dd 16 2c be 1c bc 00 be 80 b1 b9 be 5c a0 91 be
       -0.16805597 -0.12571758 -0.36268234 -0.28442657
0003f0 6f f8 b3 be 64 1c 28 bf 41 6a fb bd 92 b9 f2 be
       -0.35150477 -0.6566832 -0.12276126 -0.47407204

fc3.bias f4 [64]
000000 43 f1 16 bf 65 ae b0 bd fb e3 6e 3f 04 7e 2f 3c
       -0.58961886 -0.08627013 0.9331662 0.010711197
000010 50 cb fa bd b4 82 96 be c7 59 26 be 2f e2 57 bc
       -0.1224581 -0.29396594 -0.16245185 -0.013176485
000020 9e 36 b0 bd e8 db 53 be cc 3d bd 3e b5 4a 1d be
       -0.086041674 -0.20689356 0.3696121 -0.1536053
000030 7c 01 af bd 74 a9 e7 3e bf ff 22 be 44 d7 ac be
       -0.08545205 0.4524647 -0.15917872 -0.33757985
000040 82 79 8e be 6b b6 0b 3f 59 62 67 3e 6c d5 75 3d
       -0.27827078 0.5457522 0.2259611 0.060017988
000050 8d 01 e1 be 35 19 8a be 78 fd 45 bb 2a 97 d9 bd
       -0.43946496 -0.26972356 -0.0030210894 -0.106245354
000060 df 1d 85 be 21 49 24 3f 10 77 41 3e 29 1c 3b 3f
       -0.25999352 0.64174086 0.18893075 0.73089844
000070 4c 27 4f bd c2 96 3b bd 20 c9 42 3f 43 87 87 be
       -0.050574586 -0.04579807 0.7608814 -0.26470384
000080 a7 f9 3e 3f 80 ff 8b bc c8 75 9d be 68 fb 62 3f
       0.7459969 -0.017089605 -0.30753922 0.88664865
000090 58 36 e3 3e 0e 9d 1b 3e 94 b6 1e bf ba 48 a1 be
       0.44377398 0.1519663 -0.6199734 -0.31500798
0000a0 ff 65 89 3e 31 d2 80 3d 6a 92 68 3f a9 ad a9 be
       0.2683563 0.06290091 0.9084841 -0.33140305
0000b0 5d 36 75 3f e6 26 6a be 12 ac 7f be cb 53 ce 3d
       0.95786077 -0.22866401 -0.24967983 0.10074576
0000c0 e3 0c b8 3e 40 a9 b3 3d aa 4c 05 be b5 76 7f be
       0.35947332 0.08772516 -0.13017526 -0.24947627
0000d0 d6 46 5d 3f d4 c1 11 be 22 cc b1 be a8 b7 a3 be
       0.8643621 -0.14234096 -0.34726053 -0.31976056
0000e0 ec 91 81 be ff f4 3c bd b6 55 ec 3d e6 b2 36 be
       -0.25306642 -0.046132084 0.115397856 -0.17841682
0000f0 7d c1 22 3e 84 c7 65 be 4a 7c 50 3f 8b 3b d4 3e
       0.15894122 -0.2243939 0.8143965 0.41451678

fc4.weight f4 [4, 64]
000000 3e 78 d3 be 52 aa 1e bf 5e 62 98 3e 59 3a 13 bf
       -0.41302675 -0.6197864 0.29762548 -0.57510906
000010 a7 bd 5f be 19 be f9 be 1b 99 cc 3e a7 2d 9c 3e
       -0.2184969 -0.48777846 0.3996056 0.3050358
000020 41 6a 1b 3e 7a 1f 39 bf f8 f1 a2 3e d2 81 be be
       0.15177251 -0.72313654 0.31825233 -0.3720842
000030 50 1e 25 be 4d f3 1e 3e bd 0b 67 bf a7 c9 8d be
       -0.16124845 0.155225 -0.90252286 -0.2769291
000040 b1 61 90 bc 9e bb 6d 3e fc 85 08 3e 90 7e 8a 3d
       -0.017624708 0.23216102 0.13332361 0.06762421
000050 64 ed fa 3d ae 0b 98 3e 4a 9c 8b 3e bc ad 6f 3e
       0.1225231 0.2969641 0.27267677 0.23406118
000060 12 37 74 3e 3b be 36 3e 87 ef e7 3d 1f 68 9b 3e
       0.23849133 0.17846005 0.11324983 0.30352876
000070 79 e9 bc be 09 a7 84 bd b3 cd 9b 3e be be 06 3f
       -0.36896876 -0.06477172 0.30430374 0.526348
000080 21 e7 a2 3e 40 8a d3 3e 89 fa 96 3e 6a e3 c2 3e
       0.31816962 0.41316414 0.29488018 0.38064128
000090 61 0f 5a 3e 56 1e e4 3d b9 e4 c8 be b5 04 71 be
       0.21294929 0.111385986 -0.39237002 -0.23536952
0000a0 84 db 85 3e d3 cb bd 3d b5 73 9e 3e 26 70 eb be
       0.2614404 0.09267392 0.30947652 -0.45984
0000b0 2f 17 a3 3e c9 12 82 bf 4d 8a 45 be 83 a4 2a bf
       0.31853625 -1.0161983 -0.19291039 -0.66657275
0000c0 ad e8 03 be 8d af a9 3e c9 35 b4 3e 93 88 9a bf
       -0.12881728 0.33141747 0.35197285 -1.2072929
0000d0 45 04 64 3e 8c 32 e0 be f1 1f f3 3d a6 be 0e be
       0.22267254 -0.43788564 0.11871327 -0.13939914
0000e0 9d 11 2f bf 1b 91 22 bf 7a 81 a9 bd 3e 29 28 3e
       -0.6838625 -0.63502663 -0.08276649 0.16421983
0000f0 04 79 10 3d cc 22 a7 3e ac cc 9e 3e fa cb bd 3e
       0.03527166 0.32643735 0.31015527 0.37069684
000100 cb 0e ad be 30 b8 9a be d8 c9 d7 3e 7c f7 d3 3e
       -0.3380035 -0.3021865 0.42146182 0.41399753
000110 d5 eb 82 3d d0 dc 4e bd 97 84 8a 3e 38 1d 79 3e
       0.06392638 -0.050503552 0.27054283 0.24327552
000120 86 19 2f 3e 42 74 60 be 08 fc 4d 3e b8 2a cb 3d
       0.1709958 -0.21919349 0.20115674 0.09920257
000130 f2 5d a8 3d 2b 96 81 3e ef b9 08 3f 2e 85 e7 bd
       0.08221044 0.25309882 0.5340871 -0.11304699
000140 ab 33 13 3e 72 6d 37 3e d4 75 30 3e d6 c6 fd be
       0.14375179 0.17912844 0.17232448 -0.49565762
000150 c1 90 e0 be f2 ef e1 3e 98 24 b1 3e b2 87 a2 bc
       -0.43860438 0.44128376 0.3459823 -0.019840095
000160 cf a1 b1 3e 4f db 60 3e b1 a6 0e 3d f5 04 b0 3e
       0.34693763 0.2195866 0.034826938 0.34378782
000170 f2 73 5b 3e 52 36 9a 3e d3 04 87 3e 21 ef 70 3e
       0.21430948 0.30119568 0.26370868 0.2352872
000180 7b 01 55 3e d8 83 b6 3e 1d 16 10 3f 3e 32 23 3e
       0.20801346 0.35647464 0.5628374 0.15937135
000190 bd b3 4d 3e a3 61 a8 3e c7 09 0d bf f7 df 00 be
       0.20088096 0.3288699 -0.55093044 -0.12585436
0001a0 0d 5b 87 3e 26 e8 18 3d 40 e0 a8 3e 7c 21 fa be
       0.26436654 0.03733077 0.3298359 -0.48853672
0001b0 63 87 ab 3e fa e6 6c 3c 91 74 4f be d7 b8 0f bf
       0.3350173 0.014459366 -0.2025931 -0.5614142
0001c0 d2 79 0c 3f 86 4b b1 bd 78 b7 99 3e 26 d3 23 bf
       0.54873383 -0.08656983 0.30022788 -0.6399406
0001d0 4f 60 c4 3e 5b bf c6 bb 09 5b 1e 3e 85 11 df be
       0.38354728 -0.006065292 0.15464415 -0.43568054
0001e0 54 d4 76 be c5 29 95 bd 29 24 06 be 2d ef 2f be
       -0.24104434 -0.072833575 -0.13099732 -0.17181082
0001f0 cc ef 3f 3d 32 42 3f 3e ba 8c 6e 3e 05 10 ad 3e
       0.046859547 0.18677595 0.2329587 0.33801284
000200 6c 7a 21 bd 19 3e 9d bf e0 c6 99 3e 06 08 00 3f
       -0.03942339 -1.2284576 0.30034542 0.5001224
000210 7f a8 b5 3d ab d4 a7 be 82 1a 34 bf 39 bc 41 3e
       0.08870029 -0.3277944 -0.7035295 0.18919457
000220 d4 35 11 3d ea 7d 42 3f 34 db 67 3d 43 36 6d be
       0.035451725 0.7597338 0.056605533 -0.2316523
000230 27 7a 95 3e 37 98 14 bc c9 8d b8 3e e8 70 ab be
       0.29194757 -0.009069494 0.36045673 -0.33484578
000240 47 5b 7d 3c 17 6e 71 3e 81 5c bb 3d 4e ba 10 bf
       0.015463657 0.23577152 0.09148503 -0.5653428
000250 d9 fb 77 3b 6d 25 7f be 76 cf ba 3d b0 9b fe be
       0.0037839322 -0.2491662 0.09121601 -0.49728155
000260 3a 0c 61 3e 54 3c c3 3e 62 01 98 3e c6 48 a7 3e
       0.2197732 0.38131964 0.29688555 0.3267271
000270 2c db 45 3e ac 0a 69 bf a6 03 e8 3e 65 07 2a bf
       0.19321889 -0.9103191 0.45315284 -0.66417533
000280 b2 4e 46 3e 19 cd da 3e 58 61 a4 3e 51 e3 b7 3e
       0.19365957 0.42734602 0.32105517 0.35915616
000290 cb c0 96 3e f8 8f 6e bf 4c dd 0a bf b0 bb 23 3e
       0.29443964 -0.9318843 -0.5424392 0.15989566
0002a0 35 fc 3b 3e f7 2e a0 3e e2 5d 99 3e f3 d0 81 bf
       0.18357928 0.3128583 0.2995444 -1.0141891
0002b0 18 c0 cc 3e fd 8b e3 3b 38 fa a1 be 56 3f e0 be
       0.39990306 0.006944178 -0.31636214 -0.4379832
0002c0 3c 99 8e 3e 9c bb fd be ec a1 8e bf e3 35 10 bf
       0.27851284 -0.49557197 -1.1143165 -0.56332225
0002d0 28 8f 79 3e 0c 6f 8c 3d c7 65 33 3f 19 2e 26 3f
       0.24371016 0.06857118 0.70077175 0.6491409
0002e0 42 77 96 3d 67 f5 f9 3e d3 ec 7c bf 6f 9e 19 3f
       0.073469654 0.4882004 -0.98798865 0.60007375
0002f0 16 80 42 3e 1e 90 2e 3f 34 c1 93 3e 90 ee b2 3e
       0.18994173 0.68188655 0.2885834 0.34947634
000300 0d 9c 06 bf 7e 36 94 be 67 60 92 3e dc d4 57 3e
       -0.52581865 -0.28947824 0.28589174 0.21077293
000310 1f 58 c8 be a0 f3 31 3e d9 5a 94 3d aa 21 32 3e
       -0.3912973 0.17378092 0.0724389 0.17395654
000320 dc f2 f5 bd 07 72 06 bf 7a 71 97 3e e4 ec e6 3e
       -0.120092124 -0.5251774 0.29578763 0.45102608
000330 88 1e 15 bd 42 3e 2a 3e 1e 21 d6 3e e0 92 7a bd
       -0.03640607 0.16625312 0.4182214 -0.061175227
000340 97 3b a7 3e d4 f4 2a 3e de 37 87 3e 93 54 51 bf
       0.3266265 0.16694957 0.2640981 -0.81769675
000350 5d cb 62 bf cc 20 09 3f fe 71 5d 3e 15 a2 ea be
       -0.8859156 0.5356567 0.21625516 -0.45826784
000360 6c 14 2d 3f ee 4b b1 3e ae 05 8d 3e f0 da b3 3d
       0.67609286 0.34628242 0.27543396 0.087819934
000370 b7 5d 36 bf e8 b9 0e 3f 66 a5 b6 3e e9 f4 b8 3e
       -0.7123675 0.5575242 0.35673064 0.36124352
000380 a9 08 8e 3e 83 87 18 bf 94 b6 0f bf 7e ab 90 3e
       0.27740982 -0.59581774 -0.5613797 0.28255838
000390 e1 d0 fe 3d e7 60 a1 3d 88 77 c9 be 1d 09 09 3e
       0.12442184 0.07879811 -0.39349008 0.13382383
0003a0 33 4c db 3d 0d 48 57 bf 56 fe 9b 3e c5 1d c1 3d
       0.10707893 -0.84094316 0.3046748 0.09429506
0003b0 02 be ab 3e 10 43 c0 be 27 a1 1d 3a 34 41 85 3e
       0.33543402 -0.37551165 0.0006013088 0.2602631
0003c0 19 07 ce 3e c2 21 82 3e ae 8c 25 3f a8 79 41 bf
       0.4023979 0.2541638 0.64667785 -0.7557626
0003d0 cc 51 c5 3e 5a 03 09 3e 01 13 27 bf 83 cf ff 3d
       0.3853897 0.13380185 -0.6526337 0.124907516
0003e0 cb 09 08 3e d9 bd f8 be a3 26 9b be 53 64 32 bf
       0.13284986 -0.48582342 -0.30302915 -0.6968433
0003f0 98 0b 58 bf 18 23 90 3e a4 76 ba 3e f7 a5 92 3c
       -0.8439269 0.28151774 0.3641864 0.017901404

fc4.bias f4 [4]
000000 79 26 27 3f 5d be 0a 3f ca f1 e1 3e b9 26 1d 3f
       0.6529308 0.5419672 0.44129783 0.6138721
